app/src/main/ml/model.tflite (tflite, 149220 bytes, 10 tensors)

sequential/conv2d/Relu;sequential/conv2d/BiasAdd;sequential/conv2d_2/Conv2D;sequential/conv2d/Conv2D;sequential/conv2d/BiasAdd/ReadVariableOp f4 [32, 3, 3, 3]
0.0005702823 0.0005267655 -2.0649792e-05 1.903155e-05 0.00057873625 0.0002537425 7.029774e-05 -0.0003972673
-9.637358e-05 0.0001222011 -0.0003891471 -0.00020804432 0.0005556576 -0.0003887535 -0.00021195634 -0.00057784637
-0.00054287084 0.00010477531 6.383704e-05 0.000594851 0.00077902386 -0.00013767026 0.00031989694 0.00022849588
-0.0007658833 -0.00057289127 0.000160742 -0.00056926295 -0.00054494716 -0.0004406316 0.00020356281 -0.00014948743
8.526004e-05 0.00060493255 9.059837e-05 0.0004900695 -0.0001540155 4.6161644e-05 -0.0004253326 4.6506125e-06
1.2164965e-05 -0.00038933457 0.0003249156 -0.0003900822 -3.24637e-05 -0.00062096294 -0.00052939466 -0.0005623069
0.00021797692 0.00024451854 -0.0001618839 0.00015193688 0.0005338086 0.00044277747 0.00021178082 0.00024532538
-0.00051840616 0.00026427748 -0.00032875204 0.0006456329 0.0007479961 0.00018318377 0.0008222611 -8.5541746e-05
-0.000495499 -0.000511546 0.00020747453 0.00029493636 -0.00017258423 0.0002108632 0.00074450026 0.0007750534
0.000114884264 -0.00030080872 -0.0005336588 -0.000257909 -0.0005276622 -0.00039893325 0.00035493955 -0.00037623048
0.00013070847 0.00030627006 1.8531036e-05 8.159139e-05 -0.00022671721 -0.0004872982 -4.3082902e-05 0.00044767014
0.0002686933 -0.000108650325 -0.0004342376 -0.0002062626 0.00021411676 9.545081e-05 0.00034850367 -0.00029223695
-0.00017815619 -7.201543e-05 -0.00055582885 1.6225184e-05 7.386445e-05 -0.0001375352 -0.00032717973 0.0003431074
0.00040747612 0.00012303673 0.00026857815 -0.00050843385 -0.0002480003 -0.00022788366 -0.00024661107 -0.00011015175
-0.00011336229 -3.7092042e-05 -0.00024092448 0.0001964065 -0.0005993602 -0.0003322519 -0.00028345108 0.0002505352
0.000685104 0.00064908375 0.00015363468 0.00015113095 -0.00041733365 0.0004309629 0.0005840197 0.00064916024
0.0003441662 -0.00056376844 -0.00035260656 -0.0003137547 -0.00049601897 4.4542554e-05 0.00042984853 -0.0002573341
-0.00034503848 0.00030490733 3.4050787e-05 -0.0005299255 -0.00052807445 -0.00040466874 -0.00046301063 -0.0005742032
-0.0003338216 -0.00033736593 0.0001990466 6.1171944e-05 7.65644e-06 0.00039045676 -0.0004490426 0.00044689665
-0.00019892836 0.0005837988 0.00013656105 7.6431344e-05 0.00020957417 0.0003660546 0.00058580114 0.00023497222
-1.5934556e-05 0.000572043 8.3782856e-05 0.0005880659 -1.3956063e-05 0.00063780823 -0.00012757615 1.3656075e-05
-0.00018097456 0.00021254421 0.00034752183 -0.00028953966 -0.00027697065 -0.00018047667 -0.00059391063 -0.0007215579
-0.00015441731 0.000363127 -0.0003679712 -0.00044096544 -4.0914285e-05 -0.00032079336 0.00019065103 0.00014845563
0.00058923656 0.00039056622 -0.00053408806 0.00022516369 0.00038591278 0.0005940065 0.0006525128 0.0006295234
0.0004515716 0.00051899673 0.00082138996 -0.00045127232 -0.00020114398 0.00032277778 0.00046528762 0.00085188594
0.00046292358 -0.00031070682 -0.00019261605 0.0001448739 0.0005527562 0.00060061505 0.00015663808 0.00047510245
1.16226465e-05 1.2549952e-05 -0.0005263439 0.0003224772 2.8480358e-07 -2.1338312e-05 -0.0004628995 -0.0006371803
0.000654853 0.0007276269 0.00041341232 -0.00051535433 -8.9726054e-05 -0.00021895223 3.6114e-05 -0.00049091707
-0.00045740584 -0.0001772344 0.00015700208 0.000512196 0.00033676127 0.0001846231 -2.973082e-05 4.6719575e-05
0.00064437534 0.000634949 -0.00016870411 -0.00012208564 -0.00039680404 -0.00043167188 -6.954225e-05 0.00024993104
-7.060271e-05 -0.0004751471 -0.00056228094 0.0006083039 0.0004783603 0.000802976 -0.00017603127 0.00036942356
-0.0004228193 -0.00038489906 -0.00068400876 -0.00029632464 0.00073460134 2.1359065e-05 -5.178764e-05 0.00047437276
00000000: ff7e 153a a216 0a3a 1739 adb7 f1a5 9f37
00000010: 55b6 173a be08 8539 d06c 9338 5048 d0b9
00000020: 2c1c cab8 1c23 0039 7106 ccb9 7926 5ab9
00000030: 8da9 113a 9dd1 cbb9 9940 5eb9 9d7a 17ba
00000040: 724f 0eba d1ba db38 40e0 8538 c6ef 1b3a
00000050: 6837 4c3a 945b 10b9 d7b7 a739 6598 6f39
00000060: 8fc5 48ba 152e 16ba da8c 2839 973a 15ba
00000070: c9da 0eba 9204 e7b9 7a73 5539 babf 1cb9
00000080: a3cd b238 5694 1e3a a1ff bd38 0278 003a
00000090: 397f 21b9 b09d 4138 2dff deb9 750c 9c36
000000a0: 2018 4c37 9a1f ccb9 6f59 aa39 f283 ccb9
000000b0: a229 08b8 1ec8 22ba 13c7 0aba c767 13ba
000000c0: bc90 6439 b932 8039 61bf 29b9 3f51 1f39
000000d0: 4aef 0b3a 9624 e839 7b11 5e39 049f 8039
000000e0: a6e5 07ba b98e 8a39 5a5c acb9 b13f 293a
000000f0: 2b15 443a 0515 4039 028d 573a e064 b3b8
00000100: 60e4 01ba 4519 06ba 858d 5939 b0a1 9a39
00000110: baf7 34b9 291b 5d39 912a 433a f42c 4b3a
00000120: 05ee f038 ddb5 9db9 3ce5 0bba f637 87b9
00000130: d052 0aba ea27 d1b9 2e17 ba39 cd40 c5b9
00000140: ca0e 0939 df92 a039 1973 9b37 0b1c ab38
00000150: f0ba 6db9 0f7c ffb9 eab3 34b8 45b5 ea39
00000160: 67df 8c39 33db e3b8 62aa e3b9 3248 58b9
00000170: 8884 6039 c32c c838 5fb7 b639 6137 99b9
00000180: 70cf 3ab9 fd06 97b8 0bb5 11ba 511b 8837
00000190: ade7 9a38 5337 10b9 5289 abb9 18e3 b339
000001a0: 85a2 d539 6c03 0139 f3cf 8c39 6b48 05ba
000001b0: 0906 82b9 0ef4 6eb9 944b 81b9 4501 e7b8
000001c0: ebbc edb8 4793 1bb8 aca0 7cb9 78f2 4d39
000001d0: 621e 1dba 1832 aeb9 299c 94b9 445a 8339
000001e0: 8d98 333a 4627 2a3a ff18 2139 e878 1e39
000001f0: 93cd dab9 dcf2 e139 e618 193a 682c 2a3a
00000200: 3571 b439 dcc9 13ba 0dde b8b9 717f a4b9
00000210: 4507 02ba 34d3 3a38 4b5d e139 ccea 86b9
00000220: 48e6 b4b9 f8db 9f39 c1d1 0e38 b3ea 0aba
00000230: 7a6e 0aba b829 d4b9 3cc0 f2b9 2086 16ba
00000240: c704 afb9 7de0 b0b9 2ab7 5039 7049 8038
00000250: 2974 0037 38b6 cc39 7a6d ebb9 744d ea39
00000260: 6d97 50b9 130a 193a d431 0f39 c449 a038
00000270: 23c1 5b39 04eb bf39 7390 193a e062 7639
00000280: 33ab 85b7 28f5 153a 94b4 af38 6f28 1a3a
00000290: d624 6ab7 9632 273a f6c5 05b9 651c 6537
000002a0: fdc3 3db9 67de 5e39 9733 b639 5bcd 97b9
000002b0: 5f36 91b9 563e 3db9 abb0 1bba ee26 3dba
000002c0: 15eb 21b9 1562 be39 42ec c0b9 6131 e7b9
000002d0: 619b 2bb8 2830 a8b9 7fe9 4739 c1aa 1b39
000002e0: ff76 1a3a e9c4 cc39 0b02 0cba eb19 6c39
000002f0: 5654 ca39 1ab7 1b3a 650d 2b3a 9a06 253a
00000300: eac0 ec39 480d 083a 8c52 573a bf98 ecb9
00000310: 2dea 52b9 803a a939 d9f1 f339 1951 5f3a
00000320: 8db4 f239 5de6 a2b9 faf8 49b9 4be9 1739
00000330: d7e6 103a 9872 1d3a 373f 2439 2c17 f939
00000340: e3fe 4237 a28d 5237 57fa 09ba 2812 a939
00000350: 1be7 9834 adff b2b7 52b1 f2b9 7208 27ba
00000360: 71aa 2b3a 37be 3e3a 43bf d839 d818 07ba
00000370: 4f2b bcb8 8b96 65b9 1d79 1738 e3b0 00ba
00000380: f9cf efb9 ffd7 39b9 eda0 2439 e444 063a
00000390: 558f b039 6397 4139 7366 f9b7 c3f4 4338
000003a0: 4ceb 283a b572 263a 2ae6 30b9 1d04 00b9
000003b0: 230a d0b9 0552 e2b9 36d7 91b8 2d09 8339
000003c0: 8b10 94b8 2a1d f9b9 0966 13ba 9576 1f3a
000003d0: 6fcc fa39 cf7e 523a 0995 38b9 31af c139
000003e0: d9ad ddb9 47cc c9b9 0d4f 33ba 055c 9bb9
000003f0: 4392 403a 3e2c b337 8e36 59b8 3cb5 f839

sequential/conv2d/BiasAdd/ReadVariableOp f4 [32]
0.0023163345 0.009214841 -0.057762057 -0.05802408 -0.01602904 0.054873675 0.0040019 -0.09858442
0.000692497 -0.023816815 -0.0448644 -0.04923127 -0.030486349 -0.09477846 -0.0881809 0.16043568
-0.10632519 0.16966376 0.09632804 0.007828201 0.14502373 0.02120677 -0.03481268 -0.027354263
-0.036095098 -0.02137958 -0.11232206 -0.010989184 -0.050262466 0.04409288 -0.090920396 0.12201403
00000000: a5cd 173b d8f9 163c e897 6cbd a8aa 6dbd
00000010: 554f 83bc 38c3 603d 5f22 833b a1e6 c9bd
00000020: b088 353a 7b1b c3bc bcc3 37bd baa6 49bd
00000030: 82be f9bc 361b c2bd 3098 b4bd 4049 243e
00000040: 05c1 d9bd 56bc 2d3e a347 c53d db41 003c
00000050: 1a81 143e d2b9 ad3c be97 0ebd 0c16 e0bc
00000060: 74d8 13bd 3b24 afbc 1c09 e6bd fa0b 34bc
00000070: 04e0 4dbd bc9a 343d 7934 babd 7ee2 f93d

sequential/conv2d_1/BiasAdd/ReadVariableOp f4 [32]
0.09342637 0.023093194 -0.020316925 -0.012218568 0.04172127 0.028610963 -0.017559195 -0.057766918
-0.05717035 -0.020544963 -0.039860837 -0.025802754 0.08654195 -0.008862989 0.012013124 -0.046211645
-0.021273479 -0.0068680313 -0.014586507 -0.010885992 -0.012811396 -0.018885944 -0.022267442 -0.0076769334
-0.042674113 -0.022077141 -0.024246706 -0.06634263 0.013723264 -0.07938676 -0.013854789 -0.056419447
00000000: 5356 bf3d f02d bd3c ae6f a6bc 6330 48bc
00000010: ece3 2a3d 8a61 ea3c 4dd8 8fbc 019d 6cbd
00000020: 752b 6abd e94d a8bc 1e45 23bd 4c60 d3bc
00000030: e83c b13d 1236 11bc b2d2 443c 6c48 3dbd
00000040: b845 aebc 390d e1bb 3ffc 6ebc 295b 32bc
00000050: e4e6 51bc b2b6 9abc 366a b6bc c98e fbbb
00000060: 0dcb 2ebd 1fdb b4bc 07a1 c6bc a5de 87bd
00000070: 8bd7 603c 8795 a2bd 32ff 62bc 1418 67bd

sequential/conv2d_2/BiasAdd/ReadVariableOp f4 [32]
-0.0033295536 -0.010201704 -0.0056290017 -0.009722451 -0.087425195 0.07808557 -0.02674698 -0.005943415
0.025270637 -0.0071205106 -0.031050095 0.046413317 -0.0050359434 -0.013990808 -0.013057893 -0.010549268
-0.03269274 0.003433249 -0.017251754 -0.026639804 0.07843422 0.014928005 -0.028443838 -0.044193096
-0.0099112345 0.025571942 -0.025413934 -0.0048474274 -0.022645261 0.06858506 0.07450435 0.06271035
00000000: a434 5abb 0c25 27bc 7d73 b8bb ea4a 1fbc
00000010: fb0b b3bd 54eb 9f3d 7c1c dbbc fbc0 c2bb
00000020: 5e04 cf3c 2c53 e9bb c55c febc e41b 3e3d
00000030: 8e04 a5bb b439 65bc c6f0 55bc d6d6 2cbc
00000040: d3e8 05bd 5c00 613b 8d53 8dbc b83b dabc
00000050: 1fa2 a03d 9794 743c 0d03 e9bc d203 35bd
00000060: bb62 22bc 407c d13c e230 d0bc 2bd7 9ebb
00000070: 8e82 b9bc 5376 8c3d bd95 983d 496e 803d

sequential/conv2d_1/Conv2D f4 [32, 3, 3, 32]
0.28063875 -0.20470145 -0.16345367 0.010696288 0.1465416 -0.09843186 -0.13620497 -0.0031315654
0.26889306 0.157328 0.03110573 -0.1004446 0.06485127 0.115890555 0.05633701 -0.041425377
-0.049049955 -0.10163216 -0.34257743 -0.09509165 0.053805884 -0.2883378 0.055618558 -0.20746493
0.1113241 0.021373075 0.040660206 0.054716855 0.09559419 0.2755203 -0.030168755 0.0726792
-0.09421378 0.11835715 -0.06611247 0.045133937 -0.10976106 -0.10966889 0.079421535 0.03872344
0.09343039 -0.14014015 0.0023551048 -0.10231618 -0.046121556 -0.09840614 -0.04881615 0.05067057
0.021506652 -0.036730707 -0.039631505 -0.0067505166 0.16855815 0.042308602 -0.008636893 -0.13988696
-0.018099315 0.007599901 -0.064230464 0.059917327 -0.04067424 -0.006892828 0.015144456 -0.059929732
-0.06381538 0.23540917 0.14134368 -0.014215715 -0.00550601 -0.039229397 0.12256439 -0.062645376
-0.06824726 0.111629225 0.11675021 -0.009434398 0.020087842 0.004663961 -0.05107495 0.1284328
0.049554527 -0.11511605 0.21887201 -0.013346348 0.26164407 0.3150944 0.087204434 0.06940454
-0.011304842 0.034146648 0.030503988 0.09864366 0.115823485 -0.07448092 0.058266107 0.051358964
0.092354715 -0.17546451 -0.18844822 -0.08225519 -0.15345682 -0.1427853 -0.029239414 0.055916138
0.0003882507 0.13474883 0.058453694 -0.049931157 -0.08191316 -0.037568048 -0.11298907 0.10687841
-0.04203964 0.031171337 -0.07789166 -0.057411697 -0.1598057 -0.27569738 0.08978446 -0.029998826
0.09310407 -0.23509015 0.0068527483 0.059913334 -0.011459201 -0.012466411 -0.0038173723 0.103634454
0.07135401 0.14082104 -0.014425629 0.04094126 -0.10411687 -0.05996738 0.13400513 -0.139442
0.0096881315 -0.13266426 -0.09117728 0.070335254 0.02972743 -0.07324882 0.011525358 0.02537386
-0.03630868 0.086986564 0.101682045 -0.11271691 0.19404455 0.0895197 -0.007317857 -0.116933204
-0.08181551 -0.25118843 -0.0017637947 -0.026766317 -0.008126448 -0.09260638 -0.036997393 0.13687386
-0.22154257 0.2641659 0.20314553 0.038193546 -0.073259 -0.31140196 0.03224601 0.07239384
-0.07803136 -0.1454817 -0.01889409 0.09888427 0.06493206 -0.0524837 -0.07938734 -0.049319666
0.035613656 -0.0032118568 0.28705332 -0.11777255 0.03204499 0.19820039 -0.09634182 0.12670952
-0.05028193 -0.08294191 0.05431403 -0.08580528 0.11633876 0.019900093 0.10722337 -0.026223088
0.18862538 0.10279378 0.04694452 -0.11575452 -0.031518504 0.037354063 0.06962974 -0.12972859
-0.046548612 0.06563238 -0.0359725 -0.04322681 -0.034023736 0.09058403 -0.0147032365 -0.014981849
0.03002735 -0.029453078 -0.064979345 -0.06508925 -0.024568934 -0.12675565 -0.08667006 -0.22604999
-0.0150665 0.051688377 0.07046531 0.060390018 -0.038929395 0.008559176 -0.087433994 -0.050671156
0.08469471 0.14147219 0.101377204 0.08735349 -0.004495213 0.23736376 0.12998864 -0.04652878
-0.013140547 0.05329951 0.06854124 0.14776544 -0.0900008 0.06767929 0.071024224 0.1367753
-0.026052665 0.1548 0.25153786 0.016958654 0.17391022 0.2296977 -0.09706495 0.05503432
-0.019987315 -0.021156564 -0.047595 -0.04611754 -0.050136715 -0.03158687 -0.09825512 0.13058035
00000000: e2af 8f3e 429d 51be 6660 27be 7c3f 2f3c
00000010: 000f 163e a596 c9bd 5179 0bbe f33a 4dbb
00000020: 5aac 893e 971a 213e 72d1 fe3c e6b5 cdbd
00000030: bed0 843d 0758 ed3d a3c1 663d a8ad 29bd
00000040: 9be8 48bd 8624 d0bd 4f66 afbe 69bf c2bd
00000050: 8f63 5c3d 03a1 93be 49d0 633d b071 54be
00000060: e4fd e33d 9616 af3c 518b 263d c81e 603d
00000070: e3c6 c33d ff10 8d3e 7724 f7bc d5d8 943d
00000080: 27f3 c0bd 3c65 f23d fa65 87bd 5dde 383d
00000090: 68ca e0bd 159a e0bd c2a7 a23d 789c 1e3d
000000a0: 6f58 bf3d e680 0fbe 1a58 1a3b 258b d1bd
000000b0: f5e9 3cbd 2989 c9bd 71f3 47bd f28b 4f3d
000000c0: b82e b03c f072 16bd a554 22bd 7033 ddbb
000000d0: 829a 2c3e c94b 2d3d c181 0dbc 873e 0fbe
000000e0: 0445 94bc 9708 f93b 438b 83bd df6b 753d
000000f0: 089a 26bd 3bdd e1bb 7420 783c e178 75bd
00000100: a3b1 82bd 1a0f 713e 66bc 103e 08e9 68bc
00000110: c26b b4bb 01af 20bd 0a03 fb3d 384c 80bd
00000120: 38c5 8bbd dd9d e43d bc1a ef3d bc92 1abc
00000130: 428f a43c 24d4 983b f733 51bd e383 033e
00000140: b0f9 4a3d f7c1 ebbd fc1f 603e a4aa 5abc
00000150: 36f6 853e 0e54 a13e 3d98 b23d f823 8e3d
00000160: f237 39bc 5bdd 0b3d 80e3 f93c b005 ca3d
00000170: dd34 ed3d 7489 98bd 71a8 6e3d c75d 523d
00000180: 7824 bd3d f8ac 33be 92f8 40be 6975 a8bd
00000190: c923 1dbe 4f36 12be 7f87 efbc 5208 653d
000001a0: 208e cb39 99fb 093e 246d 6f3d 9d84 4cbd
000001b0: 16c2 a7bd f4e0 19bd d066 e7bd 11e3 da3d
000001c0: c231 2cbd 085b ff3c aa85 9fbd 8728 6bbd
000001d0: 1ba4 23be 3528 8dbe eae0 b73d 19c0 f5bc
000001e0: 59ad be3d 79bb 70be 058d e03b af67 753d
000001f0: 5fbf 3bbc eb3f 4cbc e12c 7abb 4d3e d43d
00000200: 0d22 923d 6433 103e 7959 6cbc 06b2 273d
00000210: 3a3b d5bd 5ba0 75bd a438 093e e2c9 0ebe
00000220: f8ba 1e3c 24d9 07be 27bb babd ee0b 903d
00000230: f086 f33c 7a03 96bd dbd4 3c3c d7dc cf3c
00000240: 69b8 14bd 0326 b23d ad3e d03d 20d8 e6bd
00000250: 9db3 463e 1b56 b73d a2ca efbb ad7a efbd
00000260: e48e a7bd c59b 80be 212f e7ba 0945 dbbc
00000270: cb24 05bc 6aa8 bdbd 948a 17bd a928 0c3e
00000280: 0edc 62be c140 873e 6205 503e d670 1c3d
00000290: d108 96bd 1470 9fbe 6414 043d 3943 943d
000002a0: e8ce 9fbd 28f9 14be c7c7 9abc d683 ca3d
000002b0: 1afb 843d 26f9 56bd d495 a2bd 6b03 4abd
000002c0: a0df 113d 047e 52bb a7f8 923e bc32 f1bd
000002d0: 9c41 033d 0bf5 4a3e dc4e c5bd 24c0 013e
000002e0: 6df4 4dbd 73dd a9bd 6378 5e3d aeba afbd
000002f0: 0443 ee3d 8505 a33c ed97 db3d cdd1 d6bc
00000300: 0327 413e 8c85 d23d e648 403d b510 edbd
00000310: 8c19 01bd 9300 193d 0a9a 8e3d 92d7 04be
00000320: c2a9 3ebd 456a 863d e657 13bd 980e 31bd
00000330: 795c 0bbd 1f84 b93d d8e5 70bc 6e76 75bc
00000340: ebfb f53c 9547 f1bc e413 85bd 834d 85bd
00000350: ca44 c9bc 3ccc 01be 1380 b1bd a679 67be
00000360: 7bd9 76bc 31b7 533d 1e50 903d 865b 773d
00000370: 6e74 1fbd c93b 0c3c 9810 b3bd 8f8c 4fbd
00000380: 6c74 ad3d 16de 103e da9e cf3d 63e6 b23d
00000390: 944c 93bb 7c0f 733e be1b 053e f694 3ebd
000003a0: 734b 57bc 9650 5a3d 5a5f 8c3d d34f 173e
000003b0: 5752 b8bd 719b 8a3d 2675 913d d30e 0c3e
000003c0: 666c d5bc e483 1e3e 92c9 803e e0ec 8a3c
000003d0: 8515 323e e035 6b3e fdc9 c6bd ab6b 613d
000003e0: 70bc a3bc 8850 adbc faf2 42bd bfe5 3cbd
000003f0: 285c 4dbd 3c61 01bd fb39 c9bd dbb6 053e

sequential/conv2d_2/Conv2D f4 [32, 3, 3, 32]
-0.07557902 -0.048361413 0.0045780092 -0.09037293 -0.08435863 -0.06341968 -0.020995913 -0.053867277
-0.012411564 -0.100945555 0.037019286 0.064670704 0.04155464 0.08190244 -0.03950822 0.031239478
-0.018981414 -0.061995093 -0.08205121 -0.054793287 -0.071663916 0.08275172 -0.09679618 0.09347326
-0.07149556 -0.049303096 0.060304534 0.025016403 -0.06285869 -0.021060746 -0.073155455 -0.035390098
0.06559772 0.04138119 -0.00540296 -0.015655197 0.06895667 -0.064633496 -0.095724285 0.025144214
0.025935575 -0.050167076 -0.051274788 -0.038940497 0.03855566 -0.045080796 0.03934716 -0.03496475
-0.097456686 -0.01621748 0.10104768 -0.027458508 -0.016563693 -0.06737427 -0.09331394 0.06714682
0.08100723 -0.09517449 0.0565852 0.06983714 0.021697322 0.057597727 0.10418762 0.010645645
-0.11755562 0.0016859801 -0.05964337 -0.060394563 0.008907889 0.011322778 0.06674439 -0.062481422
0.08228913 -0.03000439 0.041621912 0.069520324 -0.101300456 0.015309509 -0.08985909 -0.06558556
-0.05257903 -0.09916739 0.008458905 -0.02129444 0.013108014 -0.07595433 -0.09792019 -0.055680845
0.072666585 -0.029416962 -0.00078941707 -0.09597699 0.047404446 4.6070287e-05 0.014154701 -0.07553335
-0.10500738 -0.08457644 -0.09716688 -0.031786826 0.08016917 0.0060141343 -0.010351183 -0.11602838
0.047379646 -0.034230776 0.07302622 0.038027048 -0.05327403 0.06541268 0.0004273944 -0.09403049
0.018266268 -0.025135351 0.06044796 -0.061738923 0.10848757 0.09220809 0.0015741036 -0.049421493
-0.043259263 0.016853822 0.024002595 -0.07130639 0.02361153 0.087387055 0.064200126 -0.07442956
-0.049537577 -0.08133011 -0.08855686 -0.065366395 -0.03183819 -0.039998315 0.08575459 0.041543584
-0.061515845 0.036254868 0.084311575 0.020795291 0.01933834 -0.0635204 -0.02505461 0.088104956
0.03845979 0.09156074 -0.0519525 -0.11162081 0.08529188 -0.10389429 0.022737782 0.007657945
-0.040159427 -0.032623067 0.034465153 0.10009824 0.0781295 -0.056874048 -0.05578102 -0.044289973
-0.11019411 0.018153248 0.06133099 0.0033627825 -0.08698478 -0.021641878 -0.030853163 -0.082892515
0.038010113 -0.06479457 0.011964994 -0.017381817 -0.072122514 -0.013799631 -0.033154525 -0.021671277
0.09205156 -0.027320722 0.024029344 -0.076947086 0.08016209 -0.07237329 0.001014751 0.018680353
0.026177797 -0.038511783 -0.088032156 -0.092861764 0.026154017 -0.07587247 0.00012247985 0.046914894
-0.0052447524 -0.009683533 0.08950247 -0.0062628766 -0.030602572 0.07637608 0.037663896 -0.05139559
-0.08841493 -0.03760936 0.0052484917 0.02853424 0.014831736 0.09571782 0.038493495 0.019317355
0.029242497 -0.02137394 0.045109246 0.023054102 -0.090889335 -0.07065829 -0.034642693 -0.0066938964
0.08513937 -0.030313306 -0.0029129551 0.06095371 -0.040616143 -0.046645265 -0.011807244 -0.046434693
0.06282442 0.0073174024 -0.008153036 0.07235138 0.058936052 -0.02731055 -0.018831871 -0.052261125
0.08632572 -0.032019593 0.041193563 0.03153874 -0.045136787 -0.027188882 0.0028923794 0.002030118
0.08147291 0.021155324 0.039492026 0.021304354 -0.0038161674 0.0006396298 -0.014691287 0.016613211
0.0053091836 0.019994894 0.104462884 0.005195031 -0.054955885 -0.03310572 0.045208387 0.031885084
00000000: 2cc9 9abd 9e16 46bd 2003 963b 7115 b9bd
00000010: 38c4 acbd 2de2 81bd 9fff abbc efa3 5cbd
00000020: df59 4bbc 8bbc cebd 89a1 173d 1372 843d
00000030: 3335 2a3d 77bc a73d 5fd3 21bd efe9 ff3c
00000040: e97e 9bbc 91ee 7dbd 770a a8bd ed6e 60bd
00000050: 88c4 92bd bc79 a93d 133d c6bd e96e bf3d
00000060: 446c 92bd 0bf2 49bd e301 773d 33ef cc3c
00000070: 0fbc 80bd 9687 acbc 87d2 95bd 35f5 10bd
00000080: 1958 863d 537f 293d 500b b1bb 543f 80bc
00000090: 2839 8d3d 915e 84bd 180b c4bd 3dfb cd3c
000000a0: d876 d43c fe7b 4dbd 8305 52bd 1280 1fbd
000000b0: 8aec 1d3d a4a6 38bd 7d2a 213d 3337 0fbd
000000c0: 5f97 c7bd 85da 84bc 16f2 ce3d aaf0 e0bc
000000d0: 95b0 87bc 85fb 89bd 611b bfbd 4684 893d
000000e0: 1ee7 a53d d8ea c2bd e2c5 673d c606 8f3d
000000f0: 95be b13c 98eb 6b3d 5260 d53d 126b 2e3c
00000100: 00c1 f0bd 1bfc dc3a 9b4c 74bd 4a60 77bd
00000110: 65f2 113c 2c83 393c 48b1 883d 85ec 7fbd
00000120: 3487 a83d c4cb f5bc bd7b 2a3d ac60 8e3d
00000130: 9d76 cfbd bcd4 7a3c 0b08 b8bd b951 86bd
00000140: 1c5d 57bd 4618 cbbd 3897 0a3c ad71 aebc
00000150: ffc2 563c f28d 9bbd 618a c8bd 9911 64bd
00000160: 38d2 943d d7fb f0bc e2f0 4eba 968f c4bd
00000170: 2a2b 423d 983b 4138 1ee9 673c 3bb1 9abd
00000180: 1c0e d7bd 6a36 adbd 6eff c6bd e732 02bd
00000190: bc2f a43d 3712 c53b 0298 29bc 4aa0 edbd
000001a0: 2911 423d 9235 0cbd c58e 953d 40c2 1b3d
000001b0: df35 5abd 15f7 853d e813 e039 0f93 c0bd
000001c0: 24a3 953c a7e8 cdbc 4898 773d f4e1 7cbd
000001d0: bb2e de3d 98d7 bc3d 2752 ce3a 316e 4abd
000001e0: a030 31bd 0711 8a3c 17a1 c43c 1609 92bd
000001f0: f86c c13c fcf7 b23d 5b7b 833d 866e 98bd
00000200: eae7 4abd 6790 a6bd 4d5d b5bd d1de 85bd
00000210: c368 02bd 46d5 23bd 1aa0 af3d 9b29 2a3d
00000220: 0af8 7bbd fc7f 143d 8cab ac3d e35a aa3c
00000230: 706b 9e3c fc16 82bd 533f cdbc 5f70 b43d
00000240: 0388 1d3d 3284 bb3d 25cc 54bd 7499 e4bd
00000250: 82ad ae3d 88c6 d4bd 9644 ba3c 80ef fa3b
00000260: 367e 24bd c49f 05bd 552b 0d3d 4e00 cd3d
00000270: 5c02 a03d c3f4 68bd a47a 64bd 6769 35bd
00000280: 73ad e1bd 1fb6 943c 3436 7b3d 2162 5c3b
00000290: 1425 b2bd 4f4a b1bc c6bf fcbc 8dc3 a9bd
000002a0: 7eb0 1b3d 04b3 84bd d208 443c 5064 8ebc
000002b0: f8b4 93bd d917 62bc 0acd 07bd f687 b1bc
000002c0: 8785 bc3d b5cf dfbc 30d9 c43c 6f96 9dbd
000002d0: 062c a43d 7338 94bd 6501 853a 8a07 993c
000002e0: d272 d63c 88be 1dbd 344a b4bd 4f2e bebd
000002f0: f340 d63c 0763 9bbd ef6d 0039 d529 403d
00000300: 2cdc abbb aea7 1ebc 124d b73d d138 cdbb
00000310: 3fb2 fabc 106b 9c3d 7545 1a3d 2f84 52bd
00000320: e312 b5bd 460c 1abd 8afb ab3b a3c0 e93c
00000330: cf00 733c b407 c43d 5bab 1d3d 6e3f 9e3c
00000340: f68d ef3c 6718 afbc 79c4 383d f5db bc3c
00000350: 3024 babd 4bb5 90bd 7fe5 0dbd 7958 dbbb
00000360: 8d5d ae3d 9c53 f8bc 47e7 3ebb 99aa 793d
00000370: 1d5d 26bd 1b0f 3fbd 2c73 41bc 4e32 3ebd
00000380: 17aa 803d d2c6 ef3b 5094 05bc f62c 943d
00000390: ee66 713d 60ba dfbc 4c45 9abc c30f 56bd
000003a0: 8acb b03d fa26 03bd 95ba 283d c42e 013d
000003b0: 5ae1 38bd 38bb debc 138e 3d3b ba0b 053b
000003c0: 45db a63d ee4d ad3c 64c2 213d 7886 ae3c
000003d0: aa18 7abb d4ac 273a b9b3 70bc 6e18 883c
000003e0: a9f8 ad3b 55cc a33c a3f0 d53d 143b aa3b
000003f0: 6c19 61bd dd99 07bd 6e2c 393d ef99 023d

sequential/dense/BiasAdd/ReadVariableOp f4 [128]
0.118858874 0.09953916 0.13508724 -0.08353816 0.045876183 0.07198733 0.07630752 0.068858765
-0.018679047 0.06254672 0.023708072 0.11106388 0.009963474 0.08891769 -0.06871093 -0.020060975
-0.026599938 0.09716582 -0.013717668 0.011850036 -0.043019086 -0.017716326 -0.007100833 -0.05007865
-0.07706123 0.08361005 -0.020067997 0.06530107 -0.016189322 0.08284662 0.1121533 -0.09717983
-0.058305465 -0.0622594 -0.053122412 -0.03379141 0.08072565 -0.015829656 -0.05987671 0.08708509
0.056959126 0.041361496 0.1077055 -0.016305283 -0.017767461 0.123158254 -0.09170215 -0.034345053
-0.08991963 -0.06643347 0.09782169 -0.025329053 0.029522642 -0.005231452 -0.015185528 -0.007847343
0.12714599 0.10165466 0.040999487 0.031893197 -0.07082936 0.011717982 0.09411731 0.09529517
0.017083758 -0.041798286 -0.03255798 0.104077935 -0.0071895313 -0.013167807 -0.017184025 0.058654714
-0.025513988 0.060616486 -0.086232424 -0.0950602 0.044233523 0.0 0.008237395 0.11425913
0.112078294 -0.016247284 0.08517987 -0.017782373 0.095700435 -0.04679508 0.058280047 0.063353784
0.07290314 0.07367408 -0.09051855 -0.07835418 0.029002784 0.105107106 -0.02504184 -0.008881238
0.109198034 0.0572762 -0.08735209 -0.061596688 0.07652637 -0.005800829 -0.006329486 0.13859878
0.105817795 -0.08903505 -0.0055570025 -0.12192386 -0.0026006356 -0.021347739 -0.022517178 -0.012735277
-0.0019776782 0.0012449475 -0.034182686 0.1005787 0.07188857 -0.025789745 0.004515672 -0.06716602
-0.08816262 -0.02970427 0.033895675 0.029684959 0.006620273 -0.07725649 -0.06950562 -0.009818613
00000000: 486c f33d 30db cb3d 4f54 0a3e 0e16 abbd
00000010: aae8 3b3d 186e 933d 1e47 9c3d d305 8d3d
00000020: cd04 99bc 7f18 803d 6e37 c23c 7675 e33d
00000030: d73d 233c 7a1a b63d 51b8 8cbd ea56 a4bc
00000040: 1de8 d9bc e0fe c63d 12c0 60bc a726 423c
00000050: c834 30bd d421 91bc 1bae e8bb 451f 4dbd
00000060: 47d2 9dbd bf3b ab3d a465 a4bc 91bc 853d
00000070: 789f 84bc 7dab a93d a1b0 e53d 3806 c7bd
00000080: b6d1 6ebd b603 7fbd e396 59bd dd68 0abd
00000090: 7d53 a53d 32ad 81bc 4841 75bd ab59 b23d
000000a0: f94d 693d ac6a 293d b494 dc3d a892 85bc
000000b0: 118d 91bc 653a fc3d 56ce bbbd 66ad 0cbd
000000c0: c827 b8bd 450e 88bd bd56 c83d e07e cfbc
000000d0: 78d9 f13c 9a6c abbb b9cc 78bc 2492 00bc
000000e0: 8f32 023e 5230 d03d 14ef 273d 71a2 023d
000000f0: fc0e 91bd c7fc 3f3c 94c0 c03d 1d2a c33d
00000100: 3df3 8b3c ae34 2bbd 845b 05bd d026 d53d
00000110: 2996 ebbb c9bd 57bc 83c5 8cbc ed3f 703d
00000120: b602 d1bc fe48 783d a09a b0bd ecae c2bd
00000130: 362e 353d 0000 0000 24f6 063c b100 ea3d
00000140: 4e89 e53d 0619 85bc c972 ae3d 57ac 91bc
00000150: 97fe c33d 33ac 3fbd 0fb7 6e3d a1bf 813d
00000160: 3e4e 953d 70e2 963d ca61 b9bd 2878 a0bd
00000170: 3f97 ed3c 6542 d73d 8b24 cdbc 9d82 11bc
00000180: 38a3 df3d 739a 6a3d a7e5 b2bd cf4c 7cbd
00000190: dcb9 9c3d e114 bebb 9467 cfbb d7ec 0d3e
000001a0: 00b7 d83d 0258 b6bd 8417 b6bb 37b3 f9bd
000001b0: 6d6f 2abb 74e1 aebc f275 b8bc a0a7 50bc
000001c0: ef9b 01bb 822d a33a 2503 0cbd 35fc cd3d
000001d0: 513a 933d 0445 d3bc 34f8 933b 578e 89bd
000001e0: 9b8e b4bd 5f56 f3bc 31d6 0a3d df2d f33c
000001f0: e0ee d83b a738 9ebd f658 8ebd 3fde 20bc

sequential/dense_1/BiasAdd/ReadVariableOp f4 [3]
-0.09248275 0.07303893 -0.017268915
00000000: 9967 bdbd 6f95 953d 8a77 8dbc

sequential/dense/MatMul f4 [128, 128]
-0.057545852 -0.094581105 -0.10709374 -0.11592891 -0.065112785 0.12866546 -0.122309595 -0.12978892
0.10371976 -0.09013647 -0.08110649 0.12006791 -0.01068276 0.12557061 -0.08496566 -0.0010292154
-0.15559496 0.04419844 0.071417585 -0.016182594 -0.02281106 0.0154658025 -0.059438042 -0.10974423
0.06489121 0.1180835 -0.09134445 -0.051309295 -0.05886427 -0.07205374 0.31033888 -0.17275095
0.04744174 0.17165644 -0.07907106 -0.08767588 0.09662824 -0.015678426 0.12906812 -0.07653349
-0.020173844 0.013089577 -0.061657753 -0.08775842 -0.026255202 0.13019072 -0.05496915 0.15367962
-0.21354027 0.014981144 -0.019995268 -0.043552026 0.012297363 0.070057 -0.05206005 0.08336969
0.15243931 0.19785532 -0.0406989 -0.06532664 0.062277522 0.09302378 -0.075628676 0.09688342
0.015554185 -0.15487124 -0.14640047 -0.10049552 0.17312244 -0.07957639 0.152398 -0.06796669
-0.055114195 0.12804124 0.100938246 0.1778657 -0.0036465356 -0.11991676 0.13608694 -0.09224334
0.13168183 0.017207017 0.1635568 -0.042438142 -0.03732808 0.01606631 -0.03603889 0.06338745
-0.1371702 -0.15136302 -0.06982341 0.17326607 -0.14508234 -0.15784076 -0.16136242 0.15518282
0.065229766 -0.1337659 0.019295197 0.08296039 0.075165704 0.11834056 0.04105297 -0.104141474
0.07251859 -0.029306537 0.11819502 0.03171608 -0.19425735 0.13250263 0.019170817 0.13593157
0.14038627 -0.11753779 0.060988985 -0.13275331 0.08886117 -0.0063849394 -0.008948936 -0.087330736
0.105373666 0.2027614 0.09436676 0.0767508 -0.16841917 -0.12918173 0.0033236837 -0.06667373
0.061901093 -0.1053002 0.03163733 -0.027678385 -0.19193469 -0.03413111 -0.09144888 0.011398663
-0.10979268 -0.05254027 -0.040138807 -0.14281684 -0.0041824654 0.11515109 0.009378807 0.019115612
-0.15232132 -0.0916055 -0.07454179 -0.08194187 0.04836704 -0.14713767 -0.049912747 0.0061982055
0.09279084 -0.108934544 -0.11584083 -0.29432794 0.15395568 -0.12722245 0.039655857 -0.036243305
0.08974406 0.18964171 0.10075576 -0.03553419 -0.06091849 -0.031184936 -0.16125983 0.09900512
-0.10669007 -0.009165888 0.12002515 0.06918523 0.024892377 -0.07223733 0.07919717 -0.116475224
-0.23077625 0.124602795 -0.064348415 -0.07952771 0.2004013 0.16876933 0.09613756 0.1297452
-0.053352296 0.107780635 -0.1331334 -0.06878742 -0.088770255 0.18136427 -0.013740416 0.12914295
0.011694807 -0.031229977 -0.12387508 0.06939164 0.19592273 0.07519948 -0.009094346 0.020316258
-0.033433817 0.098109104 -0.007899851 -0.004846658 0.12175556 -0.0917312 -0.14719498 0.114541724
0.19331035 0.10135685 -0.12319979 0.04425089 -0.0054359594 0.124652386 0.07137436 -0.14235295
0.046825316 -0.027785387 0.047719885 -0.23396578 0.07460551 0.09137176 -0.09388706 -0.05514766
0.043613404 0.11076415 0.0061169527 -0.042109564 -0.059528448 0.086329184 -0.16105029 -0.04296641
-0.18275851 -0.0028116433 0.11817775 -0.0095401015 -0.09791584 -0.11793189 -0.1012101 -0.05678911
-0.039164834 0.22211628 0.016920626 0.010277808 0.071068324 0.007950941 0.10638896 -0.048042677
0.14546864 0.1424314 0.09858437 0.22190836 -0.16651228 -0.100064725 -0.0041734492 -0.1270088
00000000: 33b5 6bbd bdb3 c1bd f653 dbbd 236c edbd
00000010: da59 85bd e1c0 033e 747d fabd 63e7 04be
00000020: 076b d43d 7899 b8bd 291b a6bd 2ae6 f53d
00000030: be06 2fbc 9595 003e 7a02 aebd bde6 86ba
00000040: 4954 1fbe 6c09 353d 6243 923d 5c91 84bc
00000050: 43de babc 4764 7d3c 4e75 73bd 95c1 e0bd
00000060: afe5 843d c3d5 f13d cd12 bbbd b229 52bd
00000070: a91b 71bd e990 93bd bde4 9e3e a0e5 30be
00000080: 4552 423d b5c6 2f3e 02f0 a1bd 698f b3bd
00000090: 07e5 c53d 0b70 80bc 6f2a 043e 97bd 9cbd
000000a0: 9e43 a5bc aa75 563c d78c 7cbd b0ba b3bd
000000b0: 2615 d7bc b750 053e 5527 61bd 315e 1d3e
000000c0: 4daa 5abe 7973 753c 1ecd a3bc 9c63 32bd
000000d0: e17a 493c 0b7a 8f3d eb3c 55bd babd aa3d
000000e0: 0d19 1c3e 969a 4a3e e4b3 26bd f9c9 85bd
000000f0: b716 7f3d 4083 be3d 35e3 9abd d16a c63d
00000100: fbd6 7e3c 9196 1ebe 01ea 15be 98d0 cdbd
00000110: 0247 313e f2f8 a2bd 390e 1c3e 1f32 8bbd
00000120: 6cbf 61bd 3e1d 033e b6b8 ce3d 6d22 363e
00000130: b7fa 6ebb eb96 f5bd 605a 0b3e 14ea bcbd
00000140: 9ad7 063e bbf5 8c3c 6f7b 273e 9ed3 2dbd
00000150: 54e5 18bd 7f9d 833c 849d 13bd 48d1 813d
00000160: 5876 0cbe e8fe 1abe 93ff 8ebd a96c 313e
00000170: 7790 14be 02a1 21be 313c 25be 3fe8 1e3e
00000180: 2f97 853d eef9 08be f610 9e3c 23e7 a93d
00000190: 7af0 993d 895c f23d 2927 283d 2048 d5bd
000001a0: a084 943d 4314 f0bc 3b10 f23d b8e8 013d
000001b0: 66eb 46be c5ae 073e 1e0c 9d3c a531 0b3e
000001c0: 6bc1 0f3e a7b7 f0bd 96cf 793d 7cf0 07be
000001d0: d8fc b53d c138 d1bb 8f9e 12bc 75da b2bd
000001e0: 26ce d73d afa0 4f3e 5c43 c13d 862f 9d3d
000001f0: 1376 2cbe 3748 04be 29d2 593b 3d8c 88bd
00000200: 008c 7d3d a2a7 d7bd 2596 013d c8bd e2bc
00000210: 878a 44be 10cd 0bbd 8d49 bbbd 75c1 3a3c
00000220: fcda e0bd 7734 57bd 9768 24bd 943e 12be
00000230: 100d 89bb 56d4 eb3d 91a9 193c 5898 9c3c
00000240: 1ffa 1bbe aa9b bbbd 5ea9 98bd 24d1 a7bd
00000250: 841c 463d 42ab 16be 4f71 4cbd 511a cb3b
00000260: 2009 be3d 1319 dfbd f53d edbd 27b2 96be
00000270: 8fa6 1d3e 9a46 02be 2e6e 223d dc73 14bd
00000280: bccb b73d 7031 423e 0959 ce3d 4c8c 11bd
00000290: ab85 79bd 8d77 ffbc 4c21 25be 32c3 ca3d
000002a0: 5380 dabd 852c 16bc bfcf f53d fcb0 8d3d
000002b0: 19eb cb3c 2af1 93bd 2032 a23d 908a eebd
000002c0: 9c50 6cbe c02f ff3d 1ac9 83bd 6ddf a2bd
000002d0: 0036 4d3e ded1 2c3e c5e3 c43d eddb 043e
000002e0: f087 5abd 18bc dc3d 1f54 08be 6be0 8cbd
000002f0: 2ecd b5bd 8eb7 393e 7b1f 61bc 0d3e 043e
00000300: 939b 3f3c 02d6 ffbc 38b2 fdbd 341d 8e3d
00000310: f89f 483e 2f02 9a3d 7400 15bc 486e a63c
00000320: e6f1 08bd 6ded c83d 606e 01bc b7d0 9ebb
00000330: fb5a f93d 91dd bbbd 48ba 16be da94 ea3d
00000340: 26f3 453e 2e94 cf3d 2c50 fcbd 6c40 353d
00000350: 2220 b2bb c049 ff3d b82c 923d f9c4 11be
00000360: e7cb 3f3d 2e9e e3bc ed75 433d ba94 6fbe
00000370: c6ca 983d 1e21 bb3d dc47 c0bd 83e2 61bd
00000380: f8a3 323d 51d8 e23d b870 c83b 147b 2cbd
00000390: 1ad4 73bd 5bcd b03d 5eea 24be 8cfd 2fbd
000003a0: 0c25 3bbe 8c43 38bb 2d07 f23d 164e 1cbc
000003b0: 1a88 c8bd 4686 f1bd 3e47 cfbd b39b 68bd
000003c0: 4e6b 20bd 7372 633e 209d 8a3c 4064 283c
000003d0: 458c 913d aa44 023c 74e2 d93d 66c8 44bd
000003e0: bbf5 143e 89d9 113e 9ae6 c93d f23b 633e
000003f0: 3282 2abe bcee ccbd 6ec1 88bb 980e 02be

sequential/dense_1/MatMul f4 [3, 128]
-0.27707502 -0.30928656 -0.37440145 0.21810047 -0.266021 -0.2880267 -0.2573038 -0.14697954
-0.033077788 -0.38684925 -0.050258778 -0.3466513 0.092056185 -0.35613132 0.09094271 0.09032967
0.11125796 -0.3669936 0.047911074 -0.055908307 -0.015004227 0.106933236 -0.05669698 -0.051687527
0.091788255 -0.013073127 0.2271423 -0.036291193 0.03532898 -0.18353377 -0.44299927 0.17961982
0.10533026 0.065008186 -0.009618183 0.0248476 -0.20574719 -0.19698152 0.04353617 -0.15752462
-0.15580466 -0.25783163 -0.2765492 0.049387828 0.0049209935 -0.23342477 0.2523398 0.034379993
0.22099684 0.40261796 -0.2337553 -0.06979716 0.06213774 0.17939459 0.15132579 0.12507617
-0.4076781 -0.38354176 -0.058418415 -0.0519136 0.21441935 -0.019247854 -0.31745502 -0.2752461
-0.20606266 0.2351832 -0.03726457 -0.3783138 -0.20874429 0.14047934 0.17234167 -0.23271282
0.010692568 -0.20809993 0.17218149 0.36219746 -0.1429094 -0.010617822 0.20202503 -0.30110034
-0.3420192 0.17268297 -0.03229612 0.17278382 -0.34954393 0.17003617 -0.12101208 -0.06859386
-0.26470816 -0.29597428 0.27794242 0.23774561 -0.08676417 -0.34150133 -0.09478285 -0.06835536
-0.32797343 0.051821917 0.33983585 0.11509074 -0.13782361 -0.18325405 -0.07421949 -0.25293106
-0.2339537 0.09855161 -0.084964335 0.26003236 -0.08295588 0.19994763 -0.14024085 -0.041393228
-0.26663536 0.016268177 -0.00227665 -0.2147521 -0.22467801 0.081846245 -0.17913069 0.036067717
0.2485689 -0.1653013 -0.19568557 0.162843 0.034194764 0.0682892 0.3296879 0.016107805
0.18354107 0.097772226 0.107749104 -0.17721264 0.15799464 0.10523371 0.004159635 0.046347663
-0.1504954 -0.05818411 -0.006143607 0.010420356 0.19510165 0.28361934 -0.11988268 -0.11236026
-0.18211472 0.16585334 0.055368565 0.021766698 -0.07800044 0.085645355 -0.09422572 -0.09921578
-0.18791813 0.20191832 0.056380827 0.100886345 -0.22518122 0.25104553 0.22910869 -0.102385245
-0.20153378 -0.26058754 -0.23336916 -0.033636495 0.22493047 -0.11500294 -0.19373263 0.24405806
0.10576992 -0.12796503 0.19877395 -0.11685541 0.06501927 0.1816073 -0.30532166 -0.06629054
-0.071067855 -0.22887817 0.09044192 -0.07858744 0.27395514 -0.08114161 -0.13496353 0.1765083
0.18624969 0.21846037 0.053763423 -0.051207945 -0.1934936 -0.024494143 0.06904011 0.01676374
-0.27172568 -0.04071106 -0.042571794 -0.102005005 -0.12184698 0.0474547 -0.13708769 0.01219207
0.05153177 0.016178202 0.022320956 -0.2783626 0.017853854 -0.1960639 0.20648848 0.16791286
0.20206358 0.11281497 0.19658919 -0.15378791 0.16321026 -0.06053203 0.1879204 0.14677675
0.11690867 0.01786328 -0.14740913 -0.17623916 0.15716025 0.22367579 0.056313694 -0.09489179
0.24976516 0.21874584 -0.10143799 -0.06888903 0.1284987 -0.09179243 0.18736744 0.1348663
0.1073427 -0.18259408 0.13861842 0.15893792 -0.11460595 0.017022131 0.12273746 -0.19502361
-0.08059012 0.13939008 -0.13570595 0.19017299 0.21299699 -0.10107123 -0.08520689 -0.24437842
-0.041488364 -0.19746488 0.15074717 0.2215898 0.13055064 -0.19247183 -0.20427476 0.02223008
00000000: c7dc 8dbe cf5a 9ebe 8cb1 bfbe bb55 5f3e
00000010: e833 88be 3c78 93be 53bd 83be ce81 16be
00000020: 937c 07bd 1b11 c6be 26dc 4dbd 477c b1be
00000030: f487 bc3d d856 b6be 2c40 ba3d c3fe b83d
00000040: 37db e33d 96e6 bbbe 673e 443d 1c00 65bd
00000050: 4ad4 75bc d0ff da3d 183b 68bd 4db6 53bd
00000060: 7bfb bb3d ab30 56bc fe97 683e 13a6 14bd
00000070: 1fb5 103d 47f0 3bbe cdd0 e2be 42ee 373e
00000080: 64b7 d73d 0323 853d 9595 1dbc 328d cb3c
00000090: 64af 52be 86b5 49be fc52 323d 224e 21be
000000a0: 428b 1fbe 8202 84be db97 8dbe e44a 4a3d
000000b0: 4940 a13b e706 6fbe af32 813e 09d2 0c3d
000000c0: ff4c 623e f123 ce3e 8d5d 6fbe d0f1 8ebd
000000d0: 2584 7e3d 37b3 373e 26f5 1a3e f813 003e
000000e0: 2fbb d0be 965f c4be 2648 6fbd 5ba3 54bd
000000f0: bf90 5b3e adad 9dbc 7789 a2be 0fed 8cbe
00000100: 1702 53be ddd3 703e bca2 18bd 59b2 c1be
00000110: 10c1 55be d1d9 0f3e 567a 303e 454c 6ebe
00000120: e12f 2f3c 2618 55be 5850 303e f271 b93e
00000130: d756 12be 60f6 2dbc a6df 4e3e d329 9abe
00000140: 241d afbe ced3 303e f048 04bd 3eee 303e
00000150: 6cf7 b2be f61d 2e3e 2ed5 f7bd f07a 8cbd
00000160: d487 87be f189 97be 784e 8e3e 9673 733e
00000170: 6ab1 b1bd 43d9 aebe 831d c2bd e5fd 8bbd
00000180: 22ec a7be 3843 543d f7fe ad3e b2b4 eb3d
00000190: a221 0dbe f3a6 3bbe 6300 98bd 2e80 81be
000001a0: 8f91 6fbe 6dd5 c93d c801 aebd f622 853e
000001b0: c6e4 a9bd 12bf 4c3e 4c9b 0fbe f28b 29bd
000001c0: 6e84 88be d744 853c d933 15bb f9e7 5bbe
000001d0: fe11 66be 019f a73d 096e 37be bebb 133d
000001e0: d988 7e3e be44 29be cc61 48be 51c0 263e
000001f0: cf0f 0c3d 35db 8b3d dacc a83e 84f4 833c
00000200: 31f2 3b3e ce3c c83d 90ab dc3d 3b77 35be
00000210: 59c9 213e c584 d73d 8c4d 883b 0cd7 3d3d
00000220: 771b 1abe 7652 6ebd 5050 c9bb 24ba 2a3c
00000230: bac8 473e 8e36 913e 0d85 f5bd 231d e6bd
00000240: 487c 3abe 75d5 293e 26ca 623d 1350 b23c
00000250: b2be 9fbd d566 af3d 6af9 c0bd a531 cbbd
00000260: 9c6d 40be adc3 4e3e 95ef 663d 809d ce3d
00000270: e895 66be 0a89 803e 789b 6a3e 5baf d1bd
00000280: df5e 4ebe bb6b 85be 53f8 6ebe 6cc6 09bd
00000290: 2c54 663e a986 ebbd d961 46be 5bea 793e
000002a0: e69d d83d 4409 03be 668b 4b3e e451 efbd
000002b0: d328 853d 44f7 393e 1f53 9cbe 56c3 87bd
000002c0: 068c 91bd 0a5f 6abe 9d39 b93d 74f2 a0bd
000002d0: d943 8c3e 932d a6bd e133 0abe 97be 343e
000002e0: 3db8 3e3e 13b4 5f3e 0937 5c3d 6cbf 51bd
000002f0: 3023 46be f1a7 c8bc e764 8d3d 1c54 893c
00000300: a11f 8bbe a4c0 26bd c35f 2ebd 00e8 d0bd
00000310: e98a f9bd dc5f 423d b760 0cbe 3fc1 473c
00000320: fa12 533d 2688 843c 70da b63c 8b85 8ebe
00000330: 3f42 923c fac4 48be b771 533e 59f1 2b3e
00000340: c1e9 4e3e 890b e73d ad4e 493e 947a 1dbe
00000350: 9720 273e 6ff0 77bd 356e 403e a54c 163e
00000360: d06d ef3d 0356 923c 6bf2 16be 0a78 34be
00000370: 9eee 203e 440b 653e 30a9 663d a056 c2bd
00000380: 70c2 7f3e e9fe 5f3e b9be cfbd b115 8dbd
00000390: 2a95 033e abfd bbbd 40dd 3f3e 641a 0a3e
000003a0: 7dd6 db3d f1f9 3abe fdf1 0d3e 9fc0 223e
000003b0: 86b6 eabd ff71 8b3c c75d fb3d 45b4 47be
000003c0: 6f0c a5bd 46bc 0e3e 80f6 0abe b5bc 423e
000003d0: e21b 5a3e 6ffe cebd f380 aebd 563e 7abe
000003e0: b4ef 29bd 3c34 4abe 775d 1a3e 70e8 623e
000003f0: 11af 053e 5617 45be 672d 51be db1b b63c
